model_2.tflite (tflite, 928320 bytes, 5 tensors)

sequential_2/conv2d_6/Conv2D i1 [64, 3, 3, 3]
0	0x81	-127
1	0x01	1
2	0x8c	-116
3	0xcb	-53
4	0xfa	-6
5	0x90	-112
6	0x51	81
7	0x40	64
8	0x63	99
9	0xde	-34
10	0xad	-83
11	0x24	36
12	0xcb	-53
13	0xf1	-15
14	0xd2	-46
15	0x48	72
16	0x3b	59
17	0x46	70
18	0x23	35
19	0xcc	-52
20	0x02	2
21	0x42	66
22	0xaa	-86
23	0x93	-109
24	0xe6	-26
25	0xf5	-11
26	0x71	113
27	0xa1	-95
28	0xe7	-25
29	0x92	-110
30	0xd6	-42
31	0xe9	-23
32	0xed	-19
33	0x23	35
34	0x37	55
35	0x4b	75
36	0xa5	-91
37	0xe2	-30
38	0xfc	-4
39	0x17	23
40	0xd8	-40
41	0xde	-34
42	0x3b	59
43	0x68	104
44	0x0d	13
45	0x83	-125
46	0x81	-127
47	0xdf	-33
48	0xc5	-59
49	0xf3	-13
50	0x3c	60
51	0x53	83
52	0xea	-22
53	0xcf	-49
54	0xee	-18
55	0xb4	-76
56	0xce	-50
57	0x57	87
58	0x81	-127
59	0xe6	-26
60	0xda	-38
61	0xeb	-21
62	0x44	68
63	0xf9	-7
64	0xf4	-12
65	0x6b	107
66	0x67	103
67	0xd6	-42
68	0xe6	-26
69	0xfb	-5
70	0x9e	-98
71	0xf4	-12
72	0x61	97
73	0x4d	77
74	0xb6	-74
75	0x3b	59
76	0xc6	-58
77	0xf0	-16
78	0x24	36
79	0x9e	-98
80	0x16	22
81	0x5f	95
82	0x12	18
83	0x7f	127
84	0x48	72
85	0x6d	109
86	0xd2	-46
87	0x56	86
88	0xee	-18
89	0x4a	74
90	0xe8	-24
91	0x56	86
92	0xc9	-55
93	0xb7	-73
94	0x9b	-101
95	0xb3	-77
96	0x92	-110
97	0x08	8
98	0xc8	-56
99	0x1b	27
100	0x3e	62
101	0xfc	-4
102	0xdf	-33
103	0xf4	-12
104	0x99	-103
105	0xf3	-13
106	0x93	-109
107	0x34	52
108	0xe7	-25
109	0x81	-127
110	0x45	69
111	0xb7	-73
112	0xe1	-31
113	0x60	96
114	0x28	40
115	0x61	97
116	0xc2	-62
117	0xfd	-3
118	0x4f	79
119	0x1e	30
120	0xb8	-72
121	0x97	-105
122	0xeb	-21
123	0xbd	-67
124	0xcb	-53
125	0x19	25
126	0x4f	79
127	0xe5	-27
128	0xa6	-90
129	0xa2	-94
130	0x9e	-98
131	0x55	85
132	0x36	54
133	0x21	33
134	0x39	57
135	0x64	100
136	0xbe	-66
137	0x65	101
138	0x81	-127
139	0x4b	75
140	0x67	103
141	0x27	39
142	0x8f	-113
143	0x87	-121
144	0xa9	-87
145	0x44	68
146	0xab	-85
147	0x29	41
148	0xd9	-39
149	0x2f	47
150	0x86	-122
151	0x70	112
152	0xc9	-55
153	0x7b	123
154	0x78	120
155	0xfc	-4
156	0x7a	122
157	0x53	83
158	0x79	121
159	0xc4	-60
160	0x7d	125
161	0xdf	-33
162	0x7f	127
163	0xd1	-47
164	0xd8	-40
165	0xa7	-89
166	0x19	25
167	0x57	87
168	0x51	81
169	0x59	89
170	0xcf	-49
171	0xcc	-52
172	0xa5	-91
173	0xa3	-93
174	0xd8	-40
175	0x08	8
176	0x19	25
177	0xc3	-61
178	0xda	-38
179	0x33	51
180	0x61	97
181	0xa8	-88
182	0xdc	-36
183	0x00	0
184	0xbb	-69
185	0xd7	-41
186	0x01	1
187	0x66	102
188	0x1d	29
189	0x7f	127
190	0x69	105
191	0x46	70
192	0x4f	79
193	0x06	6
194	0xf8	-8
195	0xdc	-36
196	0x0b	11
197	0xe0	-32
198	0x32	50
199	0xeb	-21
200	0x04	4
201	0xe7	-25
202	0xd8	-40
203	0x2a	42
204	0xf6	-10
205	0xc2	-62
206	0xc6	-58
207	0xff	-1
208	0x0a	10
209	0xe6	-26
210	0xaf	-81
211	0xdb	-37
212	0xae	-82
213	0xc9	-55
214	0xfe	-2
215	0xd0	-48
216	0x52	82
217	0xf7	-9
218	0x3d	61
219	0x59	89
220	0x26	38
221	0x0b	11
222	0x1c	28
223	0x7f	127
224	0x31	49
225	0x04	4
226	0x00	0
227	0x1f	31
228	0xd0	-48
229	0x59	89
230	0xd1	-47
231	0x49	73
232	0xbd	-67
233	0xe8	-24
234	0xc4	-60
235	0xe6	-26
236	0x59	89
237	0x33	51
238	0xd1	-47
239	0x60	96
240	0x47	71
241	0xcd	-51
242	0x75	117
243	0x56	86
244	0x7a	122
245	0x2b	43
246	0x41	65
247	0x2a	42
248	0x79	121
249	0x6d	109
250	0xd4	-44
251	0x01	1
252	0x61	97
253	0xd1	-47
254	0xf8	-8
255	0x3e	62

sequential_2/conv2d_7/Conv2D i1 [64, 3, 3, 64]
0	0x10	16
1	0x0a	10
2	0x09	9
3	0xcd	-51
4	0xb7	-73
5	0x52	82
6	0x95	-107
7	0x18	24
8	0x22	34
9	0x88	-120
10	0xf3	-13
11	0x1c	28
12	0x8f	-113
13	0xfb	-5
14	0x0a	10
15	0x34	52
16	0xe9	-23
17	0xe9	-23
18	0xf7	-9
19	0x28	40
20	0xa1	-95
21	0xbc	-68
22	0x22	34
23	0x10	16
24	0xb5	-75
25	0x81	-127
26	0x03	3
27	0xe0	-32
28	0xb1	-79
29	0x02	2
30	0xa0	-96
31	0x2b	43
32	0xb0	-80
33	0xee	-18
34	0xd9	-39
35	0xfa	-6
36	0x95	-107
37	0xa4	-92
38	0x10	16
39	0x27	39
40	0x2e	46
41	0xd3	-45
42	0xb2	-78
43	0x0a	10
44	0x35	53
45	0x93	-109
46	0xd4	-44
47	0xbe	-66
48	0x55	85
49	0x0a	10
50	0x51	81
51	0xfb	-5
52	0x20	32
53	0xc0	-64
54	0xd7	-41
55	0x89	-119
56	0xd4	-44
57	0x04	4
58	0x4e	78
59	0x59	89
60	0xec	-20
61	0x2c	44
62	0xfc	-4
63	0x31	49
64	0xfd	-3
65	0x00	0
66	0x20	32
67	0xa7	-89
68	0xae	-82
69	0xb7	-73
70	0xf3	-13
71	0xc5	-59
72	0xa9	-87
73	0x0a	10
74	0xee	-18
75	0x98	-104
76	0xac	-84
77	0x53	83
78	0x22	34
79	0x97	-105
80	0xec	-20
81	0x51	81
82	0xc3	-61
83	0xfb	-5
84	0xdd	-35
85	0x10	16
86	0xf3	-13
87	0x41	65
88	0x8c	-116
89	0xc5	-59
90	0xe2	-30
91	0xe2	-30
92	0xf7	-9
93	0x9e	-98
94	0xda	-38
95	0xfe	-2
96	0x5e	94
97	0xfa	-6
98	0x41	65
99	0xd6	-42
100	0x4d	77
101	0xf2	-14
102	0x2c	44
103	0x4e	78
104	0x24	36
105	0x51	81
106	0x11	17
107	0x41	65
108	0x16	22
109	0x22	34
110	0xd3	-45
111	0xa8	-88
112	0x17	23
113	0x14	20
114	0xaf	-81
115	0xff	-1
116	0xd5	-43
117	0x59	89
118	0x56	86
119	0xf2	-14
120	0x43	67
121	0x11	17
122	0xdc	-36
123	0x3c	60
124	0x3b	59
125	0x31	49
126	0xb2	-78
127	0x35	53
128	0xa9	-87
129	0xe7	-25
130	0xbe	-66
131	0x4a	74
132	0x0e	14
133	0xad	-83
134	0xbc	-68
135	0x2e	46
136	0x19	25
137	0x2c	44
138	0xad	-83
139	0x31	49
140	0xcd	-51
141	0x40	64
142	0x20	32
143	0x44	68
144	0x45	69
145	0xf5	-11
146	0x1b	27
147	0x0b	11
148	0xaf	-81
149	0xc2	-62
150	0xc8	-56
151	0xf6	-10
152	0x1d	29
153	0x5b	91
154	0x26	38
155	0x29	41
156	0xcc	-52
157	0x5b	91
158	0x37	55
159	0x47	71
160	0x20	32
161	0x98	-104
162	0x49	73
163	0xef	-17
164	0xc3	-61
165	0x16	22
166	0x51	81
167	0x30	48
168	0x07	7
169	0xa6	-90
170	0xbd	-67
171	0x8e	-114
172	0x54	84
173	0x28	40
174	0x2d	45
175	0xa8	-88
176	0x26	38
177	0x95	-107
178	0xf7	-9
179	0xfd	-3
180	0x11	17
181	0x0c	12
182	0x0b	11
183	0xcf	-49
184	0xce	-50
185	0x9b	-101
186	0x44	68
187	0x4f	79
188	0xe0	-32
189	0xa1	-95
190	0xb7	-73
191	0x9a	-102
192	0x88	-120
193	0x34	52
194	0xf3	-13
195	0xf5	-11
196	0xa8	-88
197	0x3f	63
198	0x42	66
199	0x49	73
200	0x05	5
201	0x5f	95
202	0x20	32
203	0x0e	14
204	0x9b	-101
205	0x1c	28
206	0xae	-82
207	0xa4	-92
208	0xe0	-32
209	0x6c	108
210	0x3e	62
211	0x04	4
212	0x1d	29
213	0xba	-70
214	0xa2	-94
215	0x55	85
216	0x16	22
217	0xb5	-75
218	0x91	-111
219	0x4a	74
220	0xfc	-4
221	0xf5	-11
222	0x39	57
223	0x8b	-117
224	0xc4	-60
225	0xb9	-71
226	0x41	65
227	0xf8	-8
228	0xed	-19
229	0xd0	-48
230	0x42	66
231	0x38	56
232	0x09	9
233	0xab	-85
234	0x13	19
235	0xd5	-43
236	0x33	51
237	0x40	64
238	0x62	98
239	0x2c	44
240	0xf1	-15
241	0x4c	76
242	0x4b	75
243	0x3c	60
244	0x12	18
245	0xcc	-52
246	0xda	-38
247	0xfb	-5
248	0xb9	-71
249	0x20	32
250	0x10	16
251	0x1d	29
252	0xc0	-64
253	0xdd	-35
254	0xe9	-23
255	0x8a	-118

sequential_2/conv2d_8/Conv2D i1 [128, 3, 3, 64]
0	0xff	-1
1	0x05	5
2	0xfb	-5
3	0x0f	15
4	0x5d	93
5	0x24	36
6	0xdb	-37
7	0xd0	-48
8	0xdf	-33
9	0xb8	-72
10	0x1a	26
11	0xdc	-36
12	0x2b	43
13	0x1b	27
14	0x42	66
15	0x21	33
16	0x0c	12
17	0x25	37
18	0xfc	-4
19	0x1c	28
20	0xe2	-30
21	0x11	17
22	0x62	98
23	0xfc	-4
24	0xf8	-8
25	0x26	38
26	0x09	9
27	0xe6	-26
28	0xff	-1
29	0xda	-38
30	0xf3	-13
31	0x21	33
32	0xfa	-6
33	0xa5	-91
34	0x40	64
35	0x26	38
36	0x30	48
37	0xea	-22
38	0x57	87
39	0xce	-50
40	0x17	23
41	0xe3	-29
42	0xd8	-40
43	0xec	-20
44	0xfe	-2
45	0x23	35
46	0x32	50
47	0x34	52
48	0xf6	-10
49	0xd3	-45
50	0xfe	-2
51	0x2d	45
52	0xed	-19
53	0xe7	-25
54	0x33	51
55	0xe3	-29
56	0x1c	28
57	0xe2	-30
58	0x30	48
59	0xfe	-2
60	0x23	35
61	0x4d	77
62	0xff	-1
63	0xf7	-9
64	0x1f	31
65	0xe4	-28
66	0x1e	30
67	0xeb	-21
68	0xf3	-13
69	0xe1	-31
70	0xce	-50
71	0x21	33
72	0xc4	-60
73	0xf4	-12
74	0x29	41
75	0x10	16
76	0xe1	-31
77	0xcf	-49
78	0xb8	-72
79	0xdc	-36
80	0x16	22
81	0xd7	-41
82	0xf5	-11
83	0xf2	-14
84	0x00	0
85	0xd2	-46
86	0xfc	-4
87	0xd5	-43
88	0xe9	-23
89	0xb4	-76
90	0xd2	-46
91	0xfd	-3
92	0xf1	-15
93	0xeb	-21
94	0x95	-107
95	0xc6	-58
96	0x20	32
97	0xf4	-12
98	0x1f	31
99	0x05	5
100	0xdc	-36
101	0x2d	45
102	0xa9	-87
103	0x09	9
104	0xdb	-37
105	0xd9	-39
106	0x20	32
107	0xee	-18
108	0xd1	-47
109	0x0a	10
110	0xc4	-60
111	0x13	19
112	0xe3	-29
113	0x29	41
114	0x2c	44
115	0xa6	-90
116	0x07	7
117	0x12	18
118	0xbc	-68
119	0xf7	-9
120	0xf6	-10
121	0xe2	-30
122	0xea	-22
123	0x0f	15
124	0xda	-38
125	0x08	8
126	0x28	40
127	0xf9	-7
128	0xe6	-26
129	0xf3	-13
130	0x16	22
131	0xe9	-23
132	0xd2	-46
133	0xdc	-36
134	0x02	2
135	0x1c	28
136	0xcf	-49
137	0xe6	-26
138	0x0d	13
139	0x0c	12
140	0x1c	28
141	0xf4	-12
142	0xdf	-33
143	0x16	22
144	0xf6	-10
145	0xb9	-71
146	0xdf	-33
147	0xf3	-13
148	0x00	0
149	0xc6	-58
150	0xed	-19
151	0x11	17
152	0x0a	10
153	0xb2	-78
154	0xd8	-40
155	0x2b	43
156	0xd7	-41
157	0x24	36
158	0xe9	-23
159	0xd8	-40
160	0xf8	-8
161	0xfb	-5
162	0xf1	-15
163	0xee	-18
164	0xea	-22
165	0x02	2
166	0xd3	-45
167	0x21	33
168	0x1d	29
169	0xfc	-4
170	0x19	25
171	0x21	33
172	0xda	-38
173	0xb6	-74
174	0xd3	-45
175	0xce	-50
176	0x0f	15
177	0x1b	27
178	0xf7	-9
179	0xdc	-36
180	0xf8	-8
181	0x2a	42
182	0xcc	-52
183	0xba	-70
184	0x20	32
185	0xed	-19
186	0xd7	-41
187	0xe2	-30
188	0xf2	-14
189	0xe4	-28
190	0xed	-19
191	0xd1	-47
192	0xe8	-24
193	0x34	52
194	0x0d	13
195	0x2e	46
196	0xfe	-2
197	0x4c	76
198	0xc7	-57
199	0xfb	-5
200	0x46	70
201	0xd3	-45
202	0x1d	29
203	0xd8	-40
204	0x06	6
205	0xd7	-41
206	0xd8	-40
207	0x23	35
208	0xee	-18
209	0x7f	127
210	0xcb	-53
211	0xe6	-26
212	0x1f	31
213	0x2e	46
214	0x51	81
215	0x1b	27
216	0x11	17
217	0x0e	14
218	0x0f	15
219	0x2f	47
220	0x05	5
221	0xdb	-37
222	0x00	0
223	0x25	37
224	0x05	5
225	0xbb	-69
226	0x22	34
227	0x23	35
228	0x0c	12
229	0x0f	15
230	0x10	16
231	0xe9	-23
232	0xe4	-28
233	0xd3	-45
234	0xf6	-10
235	0xe0	-32
236	0x30	48
237	0x31	49
238	0x0f	15
239	0xf6	-10
240	0xf7	-9
241	0xb7	-73
242	0x06	6
243	0xf1	-15
244	0x08	8
245	0x0a	10
246	0x36	54
247	0x30	48
248	0xd1	-47
249	0xdb	-37
250	0xd5	-43
251	0xfd	-3
252	0x09	9
253	0x3b	59
254	0xff	-1
255	0xf1	-15

sequential_2/dense_4/MatMul i1 [128, 6272] scale=0.002143544 zero_point=0
0	0x06	0.012861263
1	0x02	0.004287088
2	0x06	0.012861263
3	0xf9	-0.015004807
4	0x0a	0.02143544
5	0x09	0.019291895
6	0xf2	-0.030009614
7	0xf3	-0.027866071
8	0xfa	-0.012861263
9	0xfc	-0.008574176
10	0xf0	-0.034296703
11	0xfa	-0.012861263
12	0x03	0.0064306315
13	0xf2	-0.030009614
14	0xf8	-0.017148351
15	0x06	0.012861263
16	0x04	0.008574176
17	0x08	0.017148351
18	0x07	0.015004807
19	0x07	0.015004807
20	0x01	0.002143544
21	0xf9	-0.015004807
22	0x03	0.0064306315
23	0xff	-0.002143544
24	0x03	0.0064306315
25	0x09	0.019291895
26	0x02	0.004287088
27	0xf8	-0.017148351
28	0xf8	-0.017148351
29	0xf8	-0.017148351
30	0x08	0.017148351
31	0x09	0.019291895
32	0x06	0.012861263
33	0x03	0.0064306315
34	0xee	-0.03858379
35	0xf9	-0.015004807
36	0xf4	-0.025722526
37	0xf9	-0.015004807
38	0x05	0.01071772
39	0xfd	-0.0064306315
40	0xf8	-0.017148351
41	0x09	0.019291895
42	0x01	0.002143544
43	0xf8	-0.017148351
44	0xfc	-0.008574176
45	0x0b	0.023578983
46	0xf5	-0.023578983
47	0xf4	-0.025722526
48	0x09	0.019291895
49	0x09	0.019291895
50	0xf9	-0.015004807
51	0x01	0.002143544
52	0x02	0.004287088
53	0x05	0.01071772
54	0xf2	-0.030009614
55	0x02	0.004287088
56	0x04	0.008574176
57	0x08	0.017148351
58	0x0d	0.027866071
59	0xfd	-0.0064306315
60	0xfc	-0.008574176
61	0x04	0.008574176
62	0x02	0.004287088
63	0x06	0.012861263
64	0xf2	-0.030009614
65	0x05	0.01071772
66	0xf6	-0.02143544
67	0x0b	0.023578983
68	0x02	0.004287088
69	0x0b	0.023578983
70	0xf3	-0.027866071
71	0x0c	0.025722526
72	0x04	0.008574176
73	0xfd	-0.0064306315
74	0x03	0.0064306315
75	0x01	0.002143544
76	0xf4	-0.025722526
77	0x07	0.015004807
78	0x09	0.019291895
79	0xfa	-0.012861263
80	0x0a	0.02143544
81	0x0d	0.027866071
82	0xf3	-0.027866071
83	0xf7	-0.019291895
84	0xff	-0.002143544
85	0x0b	0.023578983
86	0x05	0.01071772
87	0xfc	-0.008574176
88	0x00	0.0
89	0x0a	0.02143544
90	0xf9	-0.015004807
91	0x0c	0.025722526
92	0xff	-0.002143544
93	0xec	-0.04287088
94	0x0a	0.02143544
95	0xfa	-0.012861263
96	0xf4	-0.025722526
97	0xf5	-0.023578983
98	0xf8	-0.017148351
99	0x03	0.0064306315
100	0xfe	-0.004287088
101	0x0a	0.02143544
102	0xf2	-0.030009614
103	0x00	0.0
104	0xf2	-0.030009614
105	0x03	0.0064306315
106	0xfc	-0.008574176
107	0xfd	-0.0064306315
108	0xf7	-0.019291895
109	0x0b	0.023578983
110	0x0a	0.02143544
111	0x0b	0.023578983
112	0xf8	-0.017148351
113	0x0a	0.02143544
114	0x03	0.0064306315
115	0xf0	-0.034296703
116	0xf7	-0.019291895
117	0xf2	-0.030009614
118	0xf8	-0.017148351
119	0x02	0.004287088
120	0xee	-0.03858379
121	0x09	0.019291895
122	0xf6	-0.02143544
123	0xf1	-0.03215316
124	0xff	-0.002143544
125	0xf5	-0.023578983
126	0x03	0.0064306315
127	0xf9	-0.015004807
128	0x04	0.008574176
129	0x04	0.008574176
130	0xfe	-0.004287088
131	0x0e	0.030009614
132	0x05	0.01071772
133	0xff	-0.002143544
134	0xfd	-0.0064306315
135	0x00	0.0
136	0x08	0.017148351
137	0x01	0.002143544
138	0xfc	-0.008574176
139	0xfd	-0.0064306315
140	0xfa	-0.012861263
141	0xf1	-0.03215316
142	0xfb	-0.01071772
143	0xf5	-0.023578983
144	0xf9	-0.015004807
145	0xf6	-0.02143544
146	0x05	0.01071772
147	0xfc	-0.008574176
148	0x02	0.004287088
149	0xf2	-0.030009614
150	0x07	0.015004807
151	0x01	0.002143544
152	0xf4	-0.025722526
153	0xf7	-0.019291895
154	0x01	0.002143544
155	0xef	-0.036440246
156	0x04	0.008574176
157	0x05	0.01071772
158	0xf7	-0.019291895
159	0x04	0.008574176
160	0xf4	-0.025722526
161	0x08	0.017148351
162	0x04	0.008574176
163	0xf7	-0.019291895
164	0xfb	-0.01071772
165	0x07	0.015004807
166	0x11	0.036440246
167	0xff	-0.002143544
168	0xfb	-0.01071772
169	0x06	0.012861263
170	0x02	0.004287088
171	0xf2	-0.030009614
172	0x0c	0.025722526
173	0xf8	-0.017148351
174	0xf3	-0.027866071
175	0x02	0.004287088
176	0xf0	-0.034296703
177	0xf7	-0.019291895
178	0x0b	0.023578983
179	0xfe	-0.004287088
180	0x02	0.004287088
181	0xff	-0.002143544
182	0xf6	-0.02143544
183	0x0b	0.023578983
184	0xf8	-0.017148351
185	0x0c	0.025722526
186	0xfb	-0.01071772
187	0xf7	-0.019291895
188	0xfd	-0.0064306315
189	0xfd	-0.0064306315
190	0x02	0.004287088
191	0xff	-0.002143544
192	0xf9	-0.015004807
193	0x00	0.0
194	0xf8	-0.017148351
195	0xf3	-0.027866071
196	0xf7	-0.019291895
197	0xf9	-0.015004807
198	0xf9	-0.015004807
199	0x02	0.004287088
200	0xfb	-0.01071772
201	0xf6	-0.02143544
202	0x0a	0.02143544
203	0x0c	0.025722526
204	0xf9	-0.015004807
205	0xfb	-0.01071772
206	0xff	-0.002143544
207	0xfc	-0.008574176
208	0xfa	-0.012861263
209	0x05	0.01071772
210	0xf8	-0.017148351
211	0x04	0.008574176
212	0xfe	-0.004287088
213	0x0a	0.02143544
214	0xfe	-0.004287088
215	0xf7	-0.019291895
216	0xf7	-0.019291895
217	0xf4	-0.025722526
218	0xff	-0.002143544
219	0xf8	-0.017148351
220	0xf3	-0.027866071
221	0x00	0.0
222	0xf7	-0.019291895
223	0x02	0.004287088
224	0x00	0.0
225	0xfa	-0.012861263
226	0xef	-0.036440246
227	0x0a	0.02143544
228	0x04	0.008574176
229	0xf9	-0.015004807
230	0xf7	-0.019291895
231	0x05	0.01071772
232	0x08	0.017148351
233	0xfe	-0.004287088
234	0x11	0.036440246
235	0xff	-0.002143544
236	0x08	0.017148351
237	0x07	0.015004807
238	0xf5	-0.023578983
239	0xfd	-0.0064306315
240	0xfb	-0.01071772
241	0xfb	-0.01071772
242	0xef	-0.036440246
243	0xff	-0.002143544
244	0x07	0.015004807
245	0xfe	-0.004287088
246	0x0b	0.023578983
247	0x06	0.012861263
248	0xf6	-0.02143544
249	0x05	0.01071772
250	0x06	0.012861263
251	0xfc	-0.008574176
252	0x01	0.002143544
253	0x09	0.019291895
254	0xf9	-0.015004807
255	0x05	0.01071772

sequential_2/dense_5/MatMul i1 [3, 128] scale=0.002880271 zero_point=0
0	0xdb	-0.10657003
1	0xeb	-0.06048569
2	0x35	0.15265436
3	0xe9	-0.066246234
4	0xbe	-0.19009788
5	0x0f	0.043204065
6	0x31	0.14113328
7	0xfa	-0.017281625
8	0xc5	-0.16993599
9	0x15	0.06048569
10	0x36	0.15553464
11	0xf4	-0.03456325
12	0x15	0.06048569
13	0x00	0.0
14	0x45	0.19873871
15	0x27	0.11233057
16	0x46	0.20161897
17	0x2a	0.12097138
18	0x1e	0.08640813
19	0x12	0.05184488
20	0x16	0.063365966
21	0xc4	-0.17281626
22	0xcc	-0.14977409
23	0x15	0.06048569
24	0xfe	-0.005760542
25	0x0d	0.037443522
26	0x12	0.05184488
27	0x02	0.005760542
28	0x1a	0.074887045
29	0x41	0.18721762
30	0xc8	-0.16129518
31	0x2c	0.12673193
32	0x07	0.020161897
33	0x33	0.14689383
34	0xfa	-0.017281625
35	0xd3	-0.12961219
36	0xef	-0.04896461
37	0x41	0.18721762
38	0x22	0.09792922
39	0x2f	0.13537274
40	0x09	0.02592244
41	0x46	0.20161897
42	0xfa	-0.017281625
43	0xc1	-0.18145707
44	0xd8	-0.115210846
45	0xcc	-0.14977409
46	0x40	0.18433735
47	0xce	-0.14401355
48	0x39	0.16417545
49	0x25	0.10657003
50	0x45	0.19873871
51	0x10	0.046084337
52	0xc7	-0.16417545
53	0x05	0.014401356
54	0x11	0.04896461
55	0xf4	-0.03456325
56	0xfb	-0.014401356
57	0xde	-0.09792922
58	0xc9	-0.15841492
59	0xd1	-0.13537274
60	0x1f	0.089288406
61	0x46	0.20161897
62	0xd4	-0.12673193
63	0x23	0.100809485
64	0x3c	0.17281626
65	0xca	-0.15553464
66	0xbe	-0.19009788
67	0x81	-0.36579442
68	0x1f	0.089288406
69	0xe9	-0.066246234
70	0xda	-0.1094503
71	0x11	0.04896461
72	0xf9	-0.020161897
73	0x04	0.011521084
74	0x21	0.09504894
75	0x10	0.046084337
76	0xfd	-0.008640813
77	0x31	0.14113328
78	0xfa	-0.017281625
79	0x10	0.046084337
80	0x45	0.19873871
81	0x44	0.19585843
82	0x3a	0.16705573
83	0x44	0.19585843
84	0xcc	-0.14977409
85	0xa5	-0.26210466
86	0x0e	0.040323794
87	0xe6	-0.074887045
88	0xef	-0.04896461
89	0xcc	-0.14977409
90	0x46	0.20161897
91	0xcf	-0.14113328
92	0x02	0.005760542
93	0x03	0.008640813
94	0x17	0.066246234
95	0xf4	-0.03456325
96	0xe8	-0.0691265
97	0x55	0.24482304
98	0xe0	-0.092168674
99	0x17	0.066246234
100	0x3b	0.16993599
101	0x44	0.19585843
102	0xbc	-0.19585843
103	0xf8	-0.023042168
104	0xed	-0.05472515
105	0x33	0.14689383
106	0xcd	-0.14689383
107	0x48	0.20737952
108	0xc3	-0.17569654
109	0xb9	-0.20449924
110	0x3a	0.16705573
111	0xcb	-0.15265436
112	0x1a	0.074887045
113	0xef	-0.04896461
114	0xe7	-0.07200678
115	0x03	0.008640813
116	0x54	0.24194276
117	0xea	-0.063365966
118	0x44	0.19585843
119	0xf8	-0.023042168
120	0x3b	0.16993599
121	0xca	-0.15553464
122	0x19	0.07200678
123	0xc5	-0.16993599
124	0xe6	-0.074887045
125	0x08	0.023042168
126	0x36	0.15553464
127	0x35	0.15265436
128	0x01	0.002880271
129	0xba	-0.20161897
130	0x34	0.14977409
131	0xf6	-0.028802712
132	0xd9	-0.11233057
133	0x1c	0.08064759
134	0x35	0.15265436
135	0xfa	-0.017281625
136	0x34	0.14977409
137	0x1d	0.08352786
138	0x42	0.19009788
139	0xfe	-0.005760542
140	0xef	-0.04896461
141	0xd7	-0.118091114
142	0x1c	0.08064759
143	0x2f	0.13537274
144	0x18	0.0691265
145	0xc0	-0.18433735
146	0x40	0.18433735
147	0x3e	0.17857681
148	0x3a	0.16705573
149	0x0a	0.028802712
150	0xb8	-0.20737952
151	0xc5	-0.16993599
152	0x04	0.011521084
153	0xca	-0.15553464
154	0xb8	-0.20737952
155	0x48	0.20737952
156	0x51	0.23330195
157	0x0f	0.043204065
158	0xd3	-0.12961219
159	0x05	0.014401356
160	0x19	0.07200678
161	0xd9	-0.11233057
162	0xc2	-0.17857681
163	0x08	0.023042168
164	0xf6	-0.028802712
165	0x40	0.18433735
166	0x25	0.10657003
167	0x35	0.15265436
168	0xd3	-0.12961219
169	0x2f	0.13537274
170	0x35	0.15265436
171	0x1b	0.07776732
172	0x16	0.063365966
173	0xdc	-0.10368976
174	0x0f	0.043204065
175	0x15	0.06048569
176	0x43	0.19297816
177	0x40	0.18433735
178	0x34	0.14977409
179	0xcb	-0.15265436
180	0xd2	-0.13249247
181	0x22	0.09792922
182	0xc2	-0.17857681
183	0x0e	0.040323794
184	0xe5	-0.07776732
185	0xc5	-0.16993599
186	0x22	0.09792922
187	0xc5	-0.16993599
188	0x0c	0.03456325
189	0xcc	-0.14977409
190	0x49	0.21025978
191	0xc7	-0.16417545
192	0xdb	-0.10657003
193	0x30	0.138253
194	0xb5	-0.21602033
195	0xd5	-0.12385166
196	0x35	0.15265436
197	0x39	0.16417545
198	0x56	0.24770331
199	0xf4	-0.03456325
200	0x3a	0.16705573
201	0xf3	-0.037443522
202	0xdd	-0.100809485
203	0x1c	0.08064759
204	0x4b	0.21602033
205	0x1b	0.07776732
206	0xba	-0.20161897
207	0xee	-0.05184488
208	0x3a	0.16705573
209	0x2e	0.13249247
210	0x39	0.16417545
211	0xc7	-0.16417545
212	0x34	0.14977409
213	0xcb	-0.15265436
214	0x1b	0.07776732
215	0xd5	-0.12385166
216	0xf9	-0.020161897
217	0xbf	-0.18721762
218	0x26	0.1094503
219	0xfa	-0.017281625
220	0x65	0.29090738
221	0x0f	0.043204065
222	0xb9	-0.20449924
223	0xea	-0.063365966
224	0xef	-0.04896461
225	0xbd	-0.19297816
226	0x07	0.020161897
227	0x05	0.014401356
228	0x21	0.09504894
229	0x48	0.20737952
230	0x32	0.14401355
231	0xdc	-0.10368976
232	0xe9	-0.066246234
233	0x1a	0.074887045
234	0x46	0.20161897
235	0xf0	-0.046084337
236	0xf2	-0.040323794
237	0xe0	-0.092168674
238	0xbd	-0.19297816
239	0x1d	0.08352786
240	0x13	0.05472515
241	0xeb	-0.06048569
242	0xe4	-0.08064759
243	0xd8	-0.115210846
244	0xb7	-0.21025978
245	0xb9	-0.20449924
246	0xff	-0.002880271
247	0xdc	-0.10368976
248	0x3c	0.17281626
249	0x2f	0.13537274
250	0x30	0.138253
251	0x47	0.20449924
252	0x04	0.011521084
253	0xcd	-0.14689383
254	0x2a	0.12097138
255	0xd1	-0.13537274
