app/src/main/ml/model.tflite (tflite, 926640 bytes, 9 tensors)

sequential_2/conv2d_8/BiasAdd;sequential_2/conv2d_8/Conv2D;conv2d_8/bias f4 [128]
00000000: 1b4a 9b3c d7c6 c53c f623 02bd 2b6c d33c
00000010: 2c38 c63c 960b 1bbc 4c13 a2bc fbb7 723c
00000020: 3941 71bb a0dc 54bc dec3 bc3b 08d0 693c
00000030: 2625 56bc 50cb 193d 1fa2 92bc 2c2d 3fbc
00000040: 889c c13b 9f8f 8ebc a68d d8bb 3d3c 32bc
00000050: 77b0 1dbc 3695 b2bc 8f73 8f3c 125f e8bc
00000060: 359d 4dbc d0b5 e5b7 bd65 ed3c b761 2abc
00000070: 253b 86bb ce39 8fbc 3a9a e43b c669 14bc
00000080: 2702 76bb 2f8f 13bd 463a 38bc 2554 05bc
00000090: 1428 6cbc e567 45bc 0e98 0e3c 4e0b 1dbc
000000a0: 3cc0 163c 4234 06bd 0920 11bc 781e e6bb
000000b0: 3e61 1ebc a4c7 293c 7ef2 38bc 6d10 b43b
000000c0: ebff ddbc 672e a13c 378c 97bb e15d 2cbc
000000d0: 7b08 76bc 3674 31bc 821c 39bc 038d a8bb
000000e0: 3073 9c3c fef7 da3c ec65 79bc 0013 cebc
000000f0: 93da 98bc 872d 0dbc 1966 1fbb 80c1 dabc
00000100: a483 0bbc 03a8 7b3c a462 a5bc 1bf4 d43b
00000110: 7ddb 7bba 0d90 0bbc 3c52 6cbc 3054 ebbb
00000120: 5e95 b03c fe4d d23c a325 debb 470a 13bc
00000130: 37f8 37bc 7d12 16bd d2c0 1c3d fd68 91bb
00000140: e160 12bc 90ae 0c3d 4741 9d3c 540e b8bb
00000150: 52c7 06bc 03b5 3fbc e9c5 07bc dce6 cbbc
00000160: 16a8 d0bb 2dda 09bd 945a 0abc cc7b 18bc
00000170: 81ca 953c 45c8 eabb 6496 bfbc 7f3e 01bc
00000180: 268a 29bc 229d 383b 7739 2b3d 2941 a6bb
00000190: 1f4f 45bc eb63 fa3a 9877 203c 0939 a8bc
000001a0: bcf6 243d bafe 0abc 8552 07bd 1680 23bc
000001b0: c25c 10bc 13fe 9dbc 8a52 2cbc 8e3f b73c
000001c0: afd5 7dbc f26c 9f39 3e97 26bd 4594 38bc
000001d0: 31af e73b aabc 67bc 8cb3 a1bc 2f59 89bc
000001e0: f8ca 5a3d 9ab8 9cbb 0d7d 69bc a79d 23bc
000001f0: 9a04 623c d9ae 97bc d277 acbb 54ff 42bd
0.018956235 0.024142666 -0.031772576 0.025808414 0.024196707 -0.0094632115 -0.019784592 0.014814372
-0.0036812557 -0.012992054 0.005760654 0.01427079 -0.01307038 0.03754741 -0.017899571 -0.011668485
0.0059085526 -0.017402468 -0.0066086827 -0.01087862 -0.009624592 -0.021799665 0.017511157 -0.028365646
-0.012549688 -2.738359e-05 0.028979177 -0.010399274 -0.004096406 -0.017483618 0.006976393 -0.0090584215
-0.0037537904 -0.036025222 -0.011244362 -0.008137737 -0.014413852 -0.012048696 0.008703245 -0.009585215
0.009201106 -0.03276468 -0.008857735 -0.007022675 -0.009666739 0.010362539 -0.011288283 0.005495122
-0.02709957 0.019675447 -0.004624869 -0.010520429 -0.01501667 -0.0108309295 -0.011298301 -0.005143763
0.019097894 0.02672958 -0.015222054 -0.025155544 -0.018658912 -0.008616812 -0.002432233 -0.026703596
-0.008515272 0.015359881 -0.020188637 0.006498826 -0.00096075964 -0.008518231 -0.014423903 -0.007181667
0.021555599 0.025671955 -0.006779389 -0.008974618 -0.011228613 -0.036638726 0.038269825 -0.0044375644
-0.008934231 0.034346163 0.019196166 -0.0056169424 -0.008226233 -0.011700871 -0.008286932 -0.024890356
-0.0063676937 -0.033655334 -0.008444447 -0.009306859 0.018285038 -0.0071649873 -0.023387142 -0.007888435
-0.010347879 0.002816983 0.04180285 -0.0050736857 -0.01204279 0.0019103264 0.009794138 -0.020535009
0.040274367 -0.008483583 -0.03303768 -0.009979269 -0.008811178 -0.019286191 -0.010517726 0.022369172
-0.015492841 0.00030408014 -0.04067158 -0.011265819 0.007070445 -0.014144102 -0.019738935 -0.016766159
0.053416222 -0.0047827484 -0.014251006 -0.009986318 0.013795042 -0.018515991 -0.005263307 -0.04760678

sequential_2/conv2d_7/BiasAdd;sequential_2/conv2d_6/Conv2D;sequential_2/conv2d_7/Conv2D;conv2d_7/bias f4 [64]
00000000: d2c0 13bd 0f7f 0abd bfc1 bb3b 7f4e b2bc
00000010: 2b5f 21bc d39b 603c d0f2 a6bc 0f1e d0bc
00000020: d3c7 d8bc 0f86 a33c e9c7 263d 0fd8 13bc
00000030: 23b1 ee3c f377 56bd a553 023d f1a2 cbbb
00000040: a42c a0bc c5e3 e0bc 2a61 ccbc c73c 11bc
00000050: c8e4 29bd bf58 33b9 c91e 6c3d e2c3 a8bc
00000060: 5379 f3bc d8b3 a9bc 80c4 6d3d 22c4 073d
00000070: c331 283d 0bb0 00bc 69dd 603d aaeb b5bb
00000080: e3e7 86bc 13ec 29bd 7f22 d3bb 1545 2f3d
00000090: d86c 8e3d 0d65 c3bc 8e7b 52bd 97d2 253d
000000a0: ddb7 9f3c 440a 173d 9302 5f3d 1ece 4c3d
000000b0: a3d8 a43c 5fb4 423d c8d3 08bc a9c2 b3bd
000000c0: aa7d cc3b 8e7a d5bc c58c 1ebd d2c7 62bb
000000d0: b782 963d 91da 063d 4384 b9bd 2d8e 36bc
000000e0: d019 e2bd 0880 a9bc ce9d 39bd b3c8 e3bd
000000f0: fbd3 e4bd 8d4b 3f3d 3dc5 213d c744 05bc
-0.03607256 -0.03381258 0.0057298834 -0.021765945 -0.00984935 0.013709026 -0.020379454 -0.025404958
-0.026462471 0.019961385 0.040717993 -0.00902368 0.0291372 -0.052360486 0.03181805 -0.0062144925
-0.019552536 -0.027452359 -0.024948675 -0.008864588 -0.04147795 -0.00017103831 0.057646547 -0.020601217
-0.029720938 -0.020715639 0.058048725 0.03314603 0.04106308 -0.007854472 0.054898653 -0.005551775
-0.016467994 -0.041484904 -0.0064433212 0.04279049 0.06954354 -0.023851896 -0.051387362 0.040484037
0.019496853 0.036875024 0.054445814 0.050001256 0.020122832 0.047535297 -0.008351274 -0.08777363
0.0062405663 -0.026059415 -0.038708467 -0.0034603965 0.07349151 0.032923285 -0.0905843 -0.011142296
-0.110400796 -0.020690933 -0.04531651 -0.11122265 -0.111732446 0.04670291 0.03949474 -0.008134074

sequential_2/conv2d_6/BiasAdd;sequential_2/conv2d_6/Conv2D;conv2d_6/bias f4 [64]
00000000: 131c 1ebe 19f8 0fbc 2074 75bc 0ab9 d9bd
00000010: d07c 5e3b 1518 38bc 3e04 143d 41e6 aebd
00000020: 6708 4dbc c73f bfbc 4aac 493d e155 febd
00000030: d3de 16be 0ed8 5ebd 4d05 4fbc 60b3 ef3d
00000040: b982 723d bf94 693d d592 6f3a 3ba2 ecbd
00000050: 28ac 943d a7ef 003e 4c56 23bc 43fa f2bb
00000060: 06b6 26be 09e7 41bc 6704 dd3d 6c4d 0cbe
00000070: e984 39be e7d5 fabd 2bc1 2cbe bcb8 3dbb
00000080: b469 85bc de85 c0ba abdc 15be 94fe 10be
00000090: 6352 07be b41c 0c3d eb92 db3d 8fff f1bd
000000a0: 6575 debd af0d 09be ed52 83bc 6941 efbd
000000b0: b021 04bc ebcc 8fbd a365 e53a 993a 17be
000000c0: 1465 fabb beaf 52bc df15 13bc 9bae e2bd
000000d0: 8319 0ebe 5f09 9dbc b4b1 113e 999a c23d
000000e0: 0e3b 27be d10b 36ba 10a7 53bc 7ada aa3d
000000f0: 235c a0b9 b92d f53c 141e 4dbb 1fd7 c1bc
-0.15440397 -0.008787178 -0.0149813 -0.106309965 0.0033948906 -0.01123621 0.03613686 -0.08540011
-0.01251421 -0.023345841 0.049236573 -0.12418724 -0.14733438 -0.054405265 -0.012635541 0.11704135
0.059206698 0.05702662 0.0009139006 -0.115543805 0.07259399 0.1259142 -0.009969305 -0.0074150874
-0.16280374 -0.011834868 0.10791855 -0.13701409 -0.18117107 -0.1224783 -0.16870563 -0.0028949222
-0.016285755 -0.0014688333 -0.1463496 -0.14159614 -0.13215022 0.03420706 0.10721382 -0.11816322
-0.10862235 -0.13384126 -0.016030753 -0.11682398 -0.008064672 -0.07021507 0.0017501604 -0.14768447
-0.007641444 -0.012859283 -0.008977382 -0.110684596 -0.1387692 -0.019169508 0.14227945 0.095021434
-0.16331121 -0.000694451 -0.012918249 0.08342452 -0.00030586225 0.029929029 -0.0031298446 -0.023662148

sequential_2/conv2d_8/Conv2D i1 [128, 3, 3, 64]
00000000: 0ad6 053c db02 1324 01d8 001c 1de6 e028
00000010: 1851 d509 df08 fdf3 d34e dc10 d408 e115
00000020: f30d 2723 0cd6 e6e6 c4ef 0619 0f10 ebf8
00000030: 0de8 e31b 933a f326 020d 23de fb12 e007
00000040: 451e 1845 e011 1201 3ae3 2aef 0ae2 f80a
00000050: f253 0e0c 01ec ea3b 367f f31f 0f11 041a
00000060: 2003 183e 06eb fae1 e8d9 edc1 10db 0202
00000070: bf17 db0f b11f bef8 040f 57f0 fff8 d4ec
00000080: 14fb f01f 1a20 eaea 08ed 4be0 1626 e3eb
00000090: 0c39 fdff 0dde 2935 dd67 460e 9ff9 371f
000000a0: e3e3 0a2a f70d 0f01 01f2 df3f eb28 00fd
000000b0: 30f6 2deb 0c2e 3229 0b0e 5fef 0e48 e4db
000000c0: f902 df0c e005 0fe3 2e18 effa cdec f4f2
000000d0: 03ff d5dc 0c11 1717 fdd3 06eb 0c05 2404
000000e0: ee17 e5d2 e1cf d6dc c6ed 13e7 ef05 03c4
000000f0: 13dd 0af0 e614 dbef dc24 f2b8 cf1f ddfa
10 -42 5 60 -37 2 19 36
1 -40 0 28 29 -26 -32 40
24 81 -43 9 -33 8 -3 -13
-45 78 -36 16 -44 8 -31 21
-13 13 39 35 12 -42 -26 -26
-60 -17 6 25 15 16 -21 -8
13 -24 -29 27 -109 58 -13 38
2 13 35 -34 -5 18 -32 7
69 30 24 69 -32 17 18 1
58 -29 42 -17 10 -30 -8 10
-14 83 14 12 1 -20 -22 59
54 127 -13 31 15 17 4 26
32 3 24 62 6 -21 -6 -31
-24 -39 -19 -63 16 -37 2 2
-65 23 -37 15 -79 31 -66 -8
4 15 87 -16 -1 -8 -44 -20
20 -5 -16 31 26 32 -22 -22
8 -19 75 -32 22 38 -29 -21
12 57 -3 -1 13 -34 41 53
-35 103 70 14 -97 -7 55 31
-29 -29 10 42 -9 13 15 1
1 -14 -33 63 -21 40 0 -3
48 -10 45 -21 12 46 50 41
11 14 95 -17 14 72 -28 -37
-7 2 -33 12 -32 5 15 -29
46 24 -17 -6 -51 -20 -12 -14
3 -1 -43 -36 12 17 23 23
-3 -45 6 -21 12 5 36 4
-18 23 -27 -46 -31 -49 -42 -36
-58 -19 19 -25 -17 5 3 -60
19 -35 10 -16 -26 20 -37 -17
-36 36 -14 -72 -49 31 -35 -6

sequential_2/conv2d_7/Conv2D i1 [64, 3, 3, 64]
00000000: ed29 fdfa 0dfb b110 0ee3 1120 0edc 23dc
00000010: 0ce4 61f6 e4db 1bec e427 1126 f3fe 11f1
00000020: fcf5 0c02 2a0f 18f0 0ef8 e924 170d 4514
00000030: 262c f9f2 0428 d909 ff29 1cf1 f4f2 2317
00000040: 207c efe1 deee dcee 080f fd0c 080f f6f3
00000050: 020a 250c 230b 0df2 1125 1211 f8d3 0011
00000060: f515 fcde df14 05d9 eee3 170a 1614 0807
00000070: 0f07 2107 e04a fbee dd16 2e20 1dd9 f800
00000080: ee7f 0e08 1f36 f90b fcfe 3301 ff03 1efb
00000090: 0ce4 3703 05f9 30e1 0f52 e91d 01f7 17e1
000000a0: 0cf5 f61e 1bfa e803 f7f4 0325 2738 0ef8
000000b0: 0b4d 0cef 3143 ccf1 27f0 45fb fc02 fa02
000000c0: 0b32 01db 341c ca0d 24fe fa0a f919 0dd6
000000d0: f10b 1c18 1fd4 04ec 0e6e 100e 17de d7e8
000000e0: f3f3 ec08 d8f9 07e4 ebd4 ec00 16f0 3dd4
000000f0: 1335 0ee7 140a 0508 14f8 10f3 10d6 f1df
-19 41 -3 -6 13 -5 -79 16
14 -29 17 32 14 -36 35 -36
12 -28 97 -10 -28 -37 27 -20
-28 39 17 38 -13 -2 17 -15
-4 -11 12 2 42 15 24 -16
14 -8 -23 36 23 13 69 20
38 44 -7 -14 4 40 -39 9
-1 41 28 -15 -12 -14 35 23
32 124 -17 -31 -34 -18 -36 -18
8 15 -3 12 8 15 -10 -13
2 10 37 12 35 11 13 -14
17 37 18 17 -8 -45 0 17
-11 21 -4 -34 -33 20 5 -39
-18 -29 23 10 22 20 8 7
15 7 33 7 -32 74 -5 -18
-35 22 46 32 29 -39 -8 0
-18 127 14 8 31 54 -7 11
-4 -2 51 1 -1 3 30 -5
12 -28 55 3 5 -7 48 -31
15 82 -23 29 1 -9 23 -31
12 -11 -10 30 27 -6 -24 3
-9 -12 3 37 39 56 14 -8
11 77 12 -17 49 67 -52 -15
39 -16 69 -5 -4 2 -6 2
11 50 1 -37 52 28 -54 13
36 -2 -6 10 -7 25 13 -42
-15 11 28 24 31 -44 4 -20
14 110 16 14 23 -34 -41 -24
-13 -13 -20 8 -40 -7 7 -28
-21 -44 -20 0 22 -16 61 -44
19 53 14 -25 20 10 5 8
20 -8 16 -13 16 -42 -15 -33

sequential_2/conv2d_6/Conv2D i1 [64, 3, 3, 3]
00000000: 1732 db5e 1557 662e 5c1b d04f ac1f c360
00000010: 7f70 e65d 2c29 914d 0dc9 3330 fd2c 26fa
00000020: 5e44 f24e c8a4 b1ed 1fee 1513 2c81 b99b
00000030: f3c6 b9e2 3121 fc96 1323 bf0d b247 5e12
00000040: 115d cf7f 1209 aba6 c622 f8b8 e79d 8f44
00000050: 11fd d613 3cb0 e234 cb7f d556 7ac9 f53b
00000060: 5706 72a8 25b1 5fa7 673e 47e0 8497 3d8d
00000070: 86cc ad87 defc 4d20 351f b9fb e9f7 7a5e
00000080: 7f24 5e14 4451 aeca 49e3 47af c4f4 e700
00000090: f221 a65f bd1c ef3a 60c4 1ac1 a2d0 e79f
000000a0: a181 81c1 dff2 f2fe 3622 68b5 9d92 de02
000000b0: 4431 4c3d b097 ddf7 e5d8 283d 0e2c 4028
000000c0: a70d 6fa8 612a 687f a92e 31e4 4bc8 c0d2
000000d0: b510 ff58 e0c4 4d29 8fba adab 41ac ef06
000000e0: 56d4 0db2 9016 47ff 82a4 6fc6 94f9 8151
000000f0: 2fc3 3297 bfb6 d5ee 4eb7 5596 0890 c411
23 50 -37 94 21 87 102 46
92 27 -48 79 -84 31 -61 96
127 112 -26 93 44 41 -111 77
13 -55 51 48 -3 44 38 -6
94 68 -14 78 -56 -92 -79 -19
31 -18 21 19 44 -127 -71 -101
-13 -58 -71 -30 49 33 -4 -106
19 35 -65 13 -78 71 94 18
17 93 -49 127 18 9 -85 -90
-58 34 -8 -72 -25 -99 -113 68
17 -3 -42 19 60 -80 -30 52
-53 127 -43 86 122 -55 -11 59
87 6 114 -88 37 -79 95 -89
103 62 71 -32 -124 -105 61 -115
-122 -52 -83 -121 -34 -4 77 32
53 31 -71 -5 -23 -9 122 94
127 36 94 20 68 81 -82 -54
73 -29 71 -81 -60 -12 -25 0
-14 33 -90 95 -67 28 -17 58
96 -60 26 -63 -94 -48 -25 -97
-95 -127 -127 -63 -33 -14 -14 -2
54 34 104 -75 -99 -110 -34 2
68 49 76 61 -80 -105 -35 -9
-27 -40 40 61 14 44 64 40
-89 13 111 -88 97 42 104 127
-87 46 49 -28 75 -56 -64 -46
-75 16 -1 88 -32 -60 77 41
-113 -70 -83 -85 65 -84 -17 6
86 -44 13 -78 -112 22 71 -1
-126 -92 111 -58 -108 -7 -127 81
47 -61 50 -105 -65 -74 -43 -18
78 -73 85 -106 8 -112 -60 17

dense_4/bias f4 [128]
00000000: e6c2 c4bb 446f 0dbc 0c1b b6bb d8b8 c4bb
00000010: c40c f8bb c431 6bbd 7a9f c4bb 2b90 19bb
00000020: 5326 ad3d c40f 4fbd 50c4 c4bb 20bc c4bb
00000030: 1cc6 acbb 3d32 0abd 6102 40bb f1e9 f4bb
00000040: b1b9 1abc 3605 30bc cfc5 d2bb 0bbc c4bb
00000050: b811 b6bb 4cc0 d3bb bf05 ab3d ca75 26bd
00000060: 6e0a 5ebd e54d 58bd 4dbf 40bb d54f 55bd
00000070: bdc4 16bd 2d9c 45bb 19e0 52bd 5356 dfbb
00000080: 0bc7 a8bb ad08 4fbc 1413 65bd 3646 16bc
00000090: 7d28 40bb 2f4b 5ebd 421b cbbc d6ba 3bba
000000a0: 29c1 aebb d9ff 45bb c4dc a9bb f51b 7738
000000b0: 4a1c 87bc a00b 073d 8b42 bdbb fe09 43bb
000000c0: 5ce4 aa3d e415 aebb 90ad c4bb 6dc4 c4bb
000000d0: c475 cabb 3061 2abc 36b2 c4bb 044c 50bb
000000e0: ece1 4dbc d459 95bb 587d 55bd 2b6a 40bd
000000f0: ec98 11bc 2da4 67bd c7f5 aebb 78ad 03bc
00000100: e82d 70bd 90d3 63bd 0afb 3d3b 9164 15bb
00000110: 3459 58bb 123e 2abb 991f 46bb 590d abbb
00000120: 18dc 88bc 5723 afbb 741f 31bb 53fa 9f3d
00000130: e420 31bd 2a97 02bd af04 b6bb 0804 6bbd
00000140: b96c 11bb 2e81 b9bb 3908 a9bb be3b d4bb
00000150: fc3e 84bc c9ec 9cbb 370b 92bb 0229 36bc
00000160: 8221 a1bc b08f 86bb 668a 5bbd f826 18bc
00000170: 7616 24bd 1388 c4bb 65a4 63bb f3f0 37bb
00000180: 20f5 21bd 0836 dabc ecac 0abc 403d e93b
00000190: 640a 4dbd a5b9 c4bb a6b8 c4bb 0b28 2cbb
000001a0: 6b93 cbbb 888f 43bb f29a c3bb a5d9 49bb
000001b0: b7b1 4fbd 2d6c 58bd 9577 51bd c27f d3bc
000001c0: 7520 0ebd 5501 3fbd 20e6 c5bb 8925 bebc
000001d0: a225 89bb f384 67bd ae41 71bb 7dad a4bb
000001e0: f773 a7bb 8e51 b7bb 2fb3 fdbb 0b83 a7bb
000001f0: 2e99 b23d 26e8 e1bc 9609 dbbc dd5c 40bb
-0.006004679 -0.008632485 -0.0055574235 -0.0060034804 -0.007569881 -0.057420507 -0.0060004564 -0.0023431878
0.084545754 -0.050552145 -0.0060048476 -0.0060038716 -0.00527264 -0.033739317 -0.0029298293 -0.007474177
-0.009443686 -0.01074343 -0.006432272 -0.006003862 -0.0055563115 -0.0064621326 0.08350705 -0.040639676
-0.054209165 -0.05280866 -0.00294109 -0.052078087 -0.036808718 -0.0030152902 -0.051483247 -0.0068157106
-0.005150681 -0.012636346 -0.055926397 -0.009172013 -0.0029321008 -0.05427092 -0.024793271 -0.00071613246
-0.005333085 -0.0030212312 -0.005183788 5.8915426e-05 -0.016492981 0.03297007 -0.005775755 -0.0029760594
0.08344337 -0.005312668 -0.0060021356 -0.006004861 -0.0061785895 -0.010399148 -0.0060026897 -0.003178359
-0.012566071 -0.0045578275 -0.05212149 -0.04697625 -0.008886557 -0.056553055 -0.0053393575 -0.008036964
-0.05863753 -0.055621684 0.0028988742 -0.0022795538 -0.0033012154 -0.0025976938 -0.0030231236 -0.005220097
-0.016706511 -0.005344789 -0.0027026804 0.078114174 -0.043244258 -0.031882443 -0.0055547575 -0.05737689
-0.0022190048 -0.0056611514 -0.005158451 -0.0064768484 -0.016143315 -0.004788969 -0.0044569033 -0.011118175
-0.019669298 -0.0041064844 -0.053598784 -0.009286635 -0.040060483 -0.0059976666 -0.0034735438 -0.00280672
-0.03954041 -0.026637092 -0.008464079 0.0071178973 -0.050058737 -0.006003576 -0.006003457 -0.0026268985
-0.006212642 -0.002984019 -0.0059693987 -0.0030799892 -0.05070659 -0.05283754 -0.051139433 -0.025817756
-0.034698922 -0.04663213 -0.006039396 -0.023211258 -0.0041853944 -0.056523275 -0.003681283 -0.005025564
-0.0051102596 -0.005594439 -0.0077423076 -0.005112057 0.08720623 -0.027576517 -0.02673797 -0.0029352226

sequential_2/dense_4/MatMul i1 [128, 6272] scale=0.0019368526 zero_point=0
00000000: f30a 040a 0a0d fa0a fefa fa0b 08f1 fb00
00000010: f2fd fbf7 fbf1 0dfc 0701 f909 030d 04f5
00000020: 0bf9 f9fb 060b f00c fc07 0206 0af0 03fa
00000030: f305 0a0f 07f1 fcef f50c 0f02 0afc 02f1
00000040: 0503 f4f7 02f6 0903 02f9 0301 f7f3 060a
00000050: 0005 0705 faee 09f6 00f6 0d0f 000c fe0c
00000060: efee 05fa f0fd f4fe f10b 09fa f20c fc0b
00000070: 0402 fff9 07ff 030a 0ef2 f6f4 080b 05f4
00000080: 06ed 010b 0500 fbf7 06f6 0bf9 f402 f506
00000090: fff0 08f7 f30b f8fa 0a04 f6f5 f90a f0ef
000000a0: 0605 eefc 0ff5 0610 04ee 03f4 0dff 0a0b
000000b0: f708 0e0b f803 00fe fd06 030c f40a f401
000000c0: f2f1 0b04 f30b f906 f900 050c 03fa faf4
000000d0: 0405 1006 fa07 fffd 08f0 03ff fdfb 0704
000000e0: fdff 0cf7 fef2 ef0f f305 f007 f108 fcfa
000000f0: 02ee 040a f80a f90b 0f02 effc 0b0e fa0c
-0.025179084 0.019368526 0.0077474103 0.019368526 0.019368526 0.025179084 -0.011621116 0.019368526
-0.0038737052 -0.011621116 -0.011621116 0.021305379 0.015494821 -0.029052788 -0.009684263 0.0
-0.027115935 -0.005810558 -0.009684263 -0.017431673 -0.009684263 -0.029052788 0.025179084 -0.0077474103
0.013557968 0.0019368526 -0.013557968 0.017431673 0.005810558 0.025179084 0.0077474103 -0.021305379
0.021305379 -0.013557968 -0.013557968 -0.009684263 0.011621116 0.021305379 -0.030989641 0.023242231
-0.0077474103 0.013557968 0.0038737052 0.011621116 0.019368526 -0.030989641 0.005810558 -0.011621116
-0.025179084 0.009684263 0.019368526 0.029052788 0.013557968 -0.029052788 -0.0077474103 -0.032926492
-0.021305379 0.023242231 0.029052788 0.0038737052 0.019368526 -0.0077474103 0.0038737052 -0.029052788
0.009684263 0.005810558 -0.023242231 -0.017431673 0.0038737052 -0.019368526 0.017431673 0.005810558
0.0038737052 -0.013557968 0.005810558 0.0019368526 -0.017431673 -0.025179084 0.011621116 0.019368526
0.0 0.009684263 0.013557968 0.009684263 -0.011621116 -0.034863345 0.017431673 -0.019368526
0.0 -0.019368526 0.025179084 0.029052788 0.0 0.023242231 -0.0038737052 0.023242231
-0.032926492 -0.034863345 0.009684263 -0.011621116 -0.030989641 -0.005810558 -0.023242231 -0.0038737052
-0.029052788 0.021305379 0.017431673 -0.011621116 -0.027115935 0.023242231 -0.0077474103 0.021305379
0.0077474103 0.0038737052 -0.0019368526 -0.013557968 0.013557968 -0.0019368526 0.005810558 0.019368526
0.027115935 -0.027115935 -0.019368526 -0.023242231 0.015494821 0.021305379 0.009684263 -0.023242231
0.011621116 -0.0368002 0.0019368526 0.021305379 0.009684263 0.0 -0.009684263 -0.017431673
0.011621116 -0.019368526 0.021305379 -0.013557968 -0.023242231 0.0038737052 -0.021305379 0.011621116
-0.0019368526 -0.030989641 0.015494821 -0.017431673 -0.025179084 0.021305379 -0.015494821 -0.011621116
0.019368526 0.0077474103 -0.019368526 -0.021305379 -0.013557968 0.019368526 -0.030989641 -0.032926492
0.011621116 0.009684263 -0.034863345 -0.0077474103 0.029052788 -0.021305379 0.011621116 0.030989641
0.0077474103 -0.034863345 0.005810558 -0.023242231 0.025179084 -0.0019368526 0.019368526 0.021305379
-0.017431673 0.015494821 0.027115935 0.021305379 -0.015494821 0.005810558 0.0 -0.0038737052
-0.005810558 0.011621116 0.005810558 0.023242231 -0.023242231 0.019368526 -0.023242231 0.0019368526
-0.027115935 -0.029052788 0.021305379 0.0077474103 -0.025179084 0.021305379 -0.013557968 0.011621116
-0.013557968 0.0 0.009684263 0.023242231 0.005810558 -0.011621116 -0.011621116 -0.023242231
0.0077474103 0.009684263 0.030989641 0.011621116 -0.011621116 0.013557968 -0.0019368526 -0.005810558
0.015494821 -0.030989641 0.005810558 -0.0019368526 -0.005810558 -0.009684263 0.013557968 0.0077474103
-0.005810558 -0.0019368526 0.023242231 -0.017431673 -0.0038737052 -0.027115935 -0.032926492 0.029052788
-0.025179084 0.009684263 -0.030989641 0.013557968 -0.029052788 0.015494821 -0.0077474103 -0.011621116
0.0038737052 -0.034863345 0.0077474103 0.019368526 -0.015494821 0.019368526 -0.013557968 0.021305379
0.029052788 0.0038737052 -0.032926492 -0.0077474103 0.021305379 0.027115935 -0.011621116 0.023242231

sequential_2/dense_5/MatMul f4 [1, 128]
00000000: c78d a93d 5455 01be fdfe bb3d f7b7 103e
00000010: bc70 6c3d 839a a3bd 0948 603d 8b81 1e3e
00000020: bf79 0b3e c380 33be ba9e 4bbe a8b6 333e
00000030: 5ae5 353e 01da 5dbe 1b56 a53d e15d e63d
00000040: 46fd 24be 98f8 18be d533 dabd 5850 633d
00000050: dfb1 ffbd d786 6a3d 9baf 553e c9df 49be
00000060: cca4 41be f54b 8bbe 8e06 b23d 2e33 dabc
00000070: 490b 4bbe 0d4c 363e 227b 66be 6d1f 2c3e
00000080: 3039 a8bd 36f4 eabc 3372 77bd 2cff 14be
00000090: 7c0c 1b3e 9291 0dbe b6c8 36bc b1f8 fe3d
000000a0: 252f 5b3d d88b 153d 7028 08be 4fa1 133e
000000b0: e314 8cbd ea5d 283e d4ba cb3d cefb 233d
000000c0: 3870 fb3d 9c40 17be c5de 243d 4e55 0ebe
000000d0: 84e2 94bd bdb7 f9bd dd4d d73d 8200 513e
000000e0: 15b9 98bd be0f 533e bdb8 69be e935 10be
000000f0: 941f 8eb9 1dcd b7bd 2e43 4cbe fd6d e6bc
00000100: 0b1a 29be 4c9f 6fbe a466 283c 6e6e db3c
00000110: 1c7a e13d 3264 4e3e 0363 e33d 09c3 b83d
00000120: 31da 1cbe 2e76 493e 70e7 2b3e abdf 753e
00000130: 9329 82be 8c7f 1ebe 3383 653d fb87 81be
00000140: 6652 883d cff1 323c 7604 13be 648e e2bd
00000150: 4be2 ccbd 60c0 c33d 3065 7fbc cf62 9fbd
00000160: dfcc 68be edbc 053d 97b3 8abd 6824 9cbd
00000170: ce2c 1cbe 447e d8bb 3c51 df3a ae92 2d3e
00000180: caeb 79be 062c 20be bec9 debd bad5 f63b
00000190: 5d7f 5fbd 093b 8fbd 8e8c 903d 63bb 383e
000001a0: 063c 303b 1d2e 793d c951 2dbe c622 7a3c
000001b0: d746 20be d0b1 5cbd 305d 5ebd e832 41bd
000001c0: 0d13 0fbe f59e 25bd ac17 803c c156 0c3b
000001d0: 088e c93d f3c1 30be c07d 503d f32a a5bb
000001e0: 53d7 e0bc e262 4a39 c909 53bd 03ba 13be
000001f0: 5ef2 e03d 0029 e1bd d229 8fbe 1fa1 4b3e
0.08278995 -0.12630206 0.091794945 0.14132677 0.0577247 -0.07988455 0.054756198 0.15479104
0.13620661 -0.17529587 -0.19884768 0.17550147 0.17763272 -0.21665193 0.08073064 0.11248375
-0.16112241 -0.14938581 -0.106544174 0.055496544 -0.12485098 0.0572575 0.2086777 -0.19714274
-0.18910521 -0.27206388 0.086926565 -0.026635733 -0.19828524 0.17802449 -0.22507909 0.16808863
-0.08214033 -0.028680902 -0.060411643 -0.14550465 0.15141481 -0.13825062 -0.011156252 0.12449778
0.053511757 0.03651032 -0.13296676 0.14417003 -0.06839921 0.16442075 0.09947744 0.04003506
0.122772634 -0.1477074 0.040251512 -0.13899729 -0.07269767 -0.121932484 0.10512898 0.2041035
-0.074571766 0.20611474 -0.22824378 -0.14083065 -0.00027107878 -0.08974669 -0.19947502 -0.028128618
-0.16513841 -0.2340061 0.010278378 0.026786055 0.11009619 0.20155409 0.11102869 0.09021575
-0.15317608 0.19673988 0.16787505 0.24011104 -0.25422344 -0.15478343 0.056033324 -0.25299057
0.06656341 0.0109219095 -0.1435717 -0.11062315 -0.100040995 0.09558177 -0.01558809 -0.07782518
-0.22734402 0.032650877 -0.06772535 -0.076241314 -0.15251467 -0.006606849 0.001703776 0.16950485
-0.24406353 -0.15641794 -0.10878323 0.0075328024 -0.054564822 -0.06993682 0.07058059 0.18040232
0.0026891246 0.060834993 -0.1692573 0.01526708 -0.15652023 -0.053880513 -0.05428809 -0.04716769
-0.13972111 -0.040434796 0.015636288 0.0021414014 0.098415434 -0.17261486 0.050901175 -0.0050405203
-0.027446425 0.00019301058 -0.051523004 -0.14426427 0.10983728 -0.10994148 -0.27961594 0.19885682
